checkpoint.pt (torch, 290587 bytes, 5 tensors)

label_emb f8 [500, 64]
0	0xbf4ca0595c3d55ae	-0.0008736072854655297
1	0x3f423491d83edb49	0.0005555832035416343
2	0x3f45940dd4b18113	0.0006585185559622473
3	0x3f506a57c337cc72	0.0010019166046475706
4	0xbf474803fc45bddd	-0.0007104892215873921
5	0x3f4e92e428b80e38	0.0009330381448652897
6	0x3f385b62a36cade4	0.0003716579262113813
7	0x3f4ceaa2af311d22	0.0008824629170555468
8	0x3f3f1fa1a88036e0	0.0004749078439097842
9	0x3f3dd89252c67c7f	0.0004554135546416884
10	0x3f51264a83a0ae55	0.0010467269589850188
11	0x3f480acce08f7d5c	0.0007337093712713005
12	0x3f40c0a39644d292	0.0005112456097210053
13	0xbf4f753e2f6af310	-0.0009600213660046781
14	0x3f50c59b4f5c928a	0.0010236756037979322
15	0x3f4423bfab6114f8	0.0006146131406771496
16	0x3f478646b8fccc28	0.0007179112744552007
17	0x3f5206d44fcd3fbe	0.0011002610546775172
18	0x3f40d94391de0780	0.0005141811304698457
19	0x3f45ac30655fe27d	0.0006613956745687568
20	0xbf49640b35b416c9	-0.0007748656020402862
21	0xbf3f5bbc7edea6e9	-0.0004784903711604187
22	0xbf4a30d9f096f37c	-0.0007992805632778123
23	0x3f4ad65b7c8e04fb	0.0008190104209548072
24	0x3f3d996ce2a3d75c	0.000451649745300533
25	0xbf499b03223aeda7	-0.0007814183522535837
26	0xbf3c8982e2f6326e	-0.00043544240448837354
27	0x3f58957f0d7f9024	0.0015004864453596134
28	0x3f4e7e1910982061	0.0009305593859503352
29	0xbf55c252b8edeba9	-0.0013280685268159764
30	0x3f4c7e3c9b03fd36	0.0008695407796323387
31	0xbf4e93daa5a63c6e	-0.0009331529247890277
32	0xbf4b6855955e8283	-0.0008364122283986561
33	0x3f51a8720bb9de96	0.0010777581909716997
34	0xbf242af57e8ab3ad	-0.000153868167463681
35	0xbf50e01c9da1b92c	-0.0010299949122117387
36	0x3f50d8b8533fa6eb	0.0010282325792964574
37	0x3f404500634e13af	0.0004965068716137245
38	0x3f4aa35b31748bd5	0.0008129306105825138
39	0xbf51767add53d053	-0.001065845475122469
40	0x3f3629aa8386fd24	0.00033817685064359477
41	0x3f4b54deefed8bdf	0.0008340920029293839
42	0x3f4a74c6028cb4ce	0.0008073775144105345
43	0x3f399d8b216c9a05	0.0003908600496508599
44	0x3f487b8752070035	0.0007471476310954075
45	0x3f4a2bd5e3c8f70d	0.0007986826308934173
46	0xbf4f1eaa03a2d6d6	-0.0009497003695943761
47	0x3f3c39dfaef48b16	0.00043069563885660253
48	0x3f51a3ab9f4c2a34	0.001076619720324812
49	0x3f455b09f24df6a7	0.0006517218176751064
50	0x3f2d8b64c2dee37f	0.0002254066943672382
51	0x3f48f77766457b2c	0.0007619221692428449
52	0x3f333b18903b4526	0.00029343938534250253
53	0x3f4b8fe2f617aec1	0.0008411272248713618
54	0x3f488f190e0bb62d	0.0007494804704870122
55	0x3f534b46345239ce	0.0011776147451062371
56	0x3f301c163fa16bac	0.0002458147351995187
57	0xbf48cb4584c63c0a	-0.0007566537329227751
58	0xbf452de3a25a6f4e	-0.0006463395590858652
59	0x3f48520705b7b128	0.0007422003067723325
60	0xbf536a37ac1d45f1	-0.0011849921870247216
61	0x3f4187b4cf75cc9d	0.0005349762786138916
62	0xbf55f994e475ae18	-0.0013412431743188343
63	0xbf4d86e6410a968a	-0.0009010910308304293
64	0xbf528c0b0ddeff5f	-0.0011320217085852497
65	0x3f4633af55e294b5	0.000677548039466422
66	0x3f4dddf9a69d0baa	0.0009114712713443791
67	0x3f523505b4a74298	0.0011112743110183506
68	0xbf511a89f6efeb26	-0.0010439250288515971
69	0x3f545afbae5a0865	0.0012423951933731245
70	0x3f3b30b0467d37e9	0.0004148893699394961
71	0x3f4ecfc7f739eb91	0.0009402967829851163
72	0x3f42b0fb69fa809a	0.0005704143149678654
73	0x3f416d6e4656a893	0.0005318439913726429
74	0x3f5570a585f145d3	0.00130859531761406
75	0x3f4ed89170f371ea	0.0009413442766362222
76	0x3f46123f94842b0f	0.0006735620927725577
77	0xbf51967f99196f24	-0.001073479278054409
78	0x3f52f4be6a8842ff	0.001156984284652107
79	0x3f49ef8400f6f533	0.0007914919423723021
80	0x3f50d8c14d753bf4	0.0010282409401332045
81	0x3f54c631f21eaa32	0.0012679565192949102
82	0x3f44831241e748a2	0.0006259764812120048
83	0x3f48321cc89d1656	0.0007383957429076364
84	0xbf50fe922f7a0c40	-0.001037256964907099
85	0xbf4263d623c1323c	-0.0005612178424683821
86	0xbf50979bf5002911	-0.0010127089517504887
87	0x3f4f5a49c9a3347f	0.0009568081179850556
88	0x3f4563e88592d152	0.0006527791366779756
89	0xbf4c8ec498bc9796	-0.0008715114540549403
90	0xbf40993b50e7a4c0	-0.0005065478924822994
91	0x3f5e127f9b165415	0.0018354650640948257
92	0x3f514a1712e79a54	0.0010552621202976247
93	0xbf5afb62306e64db	-0.0016468485716585799
94	0x3f50fe5ce0e6c98e	0.0010372073189555994
95	0xbf5238961c6f391b	-0.0011121240547598613
96	0xbf4e22b81fefa0d3	-0.0009196661993629236
97	0x3f550337784fbb48	0.0012825051974194191
98	0xbf34a674b1a2084e	-0.0003150973221935958
99	0xbf53db2ca2fe43ff	-0.0012119232087324237
100	0x3f52264ad82c7c50	0.0011077624228119816
101	0x3f40cb0d1981836f	0.0005124868357705268
102	0x3f50299199e0ad6c	0.000986473263320099
103	0xbf530ba3083b9f68	-0.0011624424086508992
104	0x3f3c70bb86b9d888	0.00043396547582775407
105	0x3f4e81b79adae310	0.0009309908397972817
106	0x3f4e570e16f87065	0.0009259051129819727
107	0x3f42b3c135866b6c	0.0005707448390695874
108	0x3f4bf76e992b82ea	0.0008534708052501925
109	0x3f5014f7cbe9a470	0.0009815616500879164
110	0xbf53591e141235ae	-0.0011809152349856289
111	0x3f42d2a94d6f6629	0.0005744291946669411
112	0x3f530d24e1f4e763	0.0011628017599165312
113	0x3f4c2a543ba4d04a	0.0008595382017007127
114	0x3f34e0628e6f7bc1	0.0003185501686270819
115	0x3f4dac6a1dd20ea1	0.0009055631777674275
116	0x3f3a6ea2649cb865	0.0004033228366208174
117	0x3f526cd4e0c3a421	0.0011245802771162677
118	0x3f504d52ec8aff7f	0.000994997959580218
119	0x3f56636dd15994b6	0.0013664791526022796
120	0x3f3841fe1e62a3b7	0.00037014440602916747
121	0xbf502118c3c58302	-0.0009844533770648205
122	0xbf47e188b3fe9cf1	-0.0007287900443672374
123	0x3f4ddd81a7b4036a	0.0009114153939720874
124	0xbf55fd60c4578cab	-0.0013421483030178576
125	0x3f44c23da0e663bc	0.0006335068626866984
126	0xbf59be7fb1ffdabf	-0.0015712973618044327
127	0xbf51ec3081cefe8b	-0.0010939096166423825
128	0xbf52f97ab4905f4f	-0.0011581133169382312
129	0x3f45558d59474d47	0.0006510677508750139
130	0x3f4bb42f0701b3f6	0.0008454541803196703
131	0x3f511b67650c1490	0.0010441312517184588
132	0xbf4cbe5654c03c4e	-0.0008771821535463826
133	0x3f5032c76e705007	0.0009886691639211535
134	0x3f35ed1bbfe5b128	0.00033456733208116424
135	0x3f4fadc9caa22a0e	0.00096676209547414
136	0x3f407af40697304e	0.0005029384166674951
137	0x3f41dfa2bfb477d6	0.0005454582855326472
138	0x3f54a7af2579f2c5	0.0012606821454987243
139	0x3f493b24746f2103	0.0007699897768072287
140	0x3f431e7429135951	0.0005834643544868988
141	0xbf519e9df0f9164e	-0.0010754148860469162
142	0x3f52ad2e4beb6604	0.001139922343716627
143	0x3f48bd7fac60a2c2	0.0007550118832614016
144	0x3f4f6bb2f4d0f92d	0.0009588836488843337
145	0x3f5503f5fa067ead	0.0012826826206050843
146	0x3f40e68636197d1f	0.0005157618836157152
147	0x3f482827209ca2ba	0.0007372084666928604
148	0xbf50cc3faf75557f	-0.0010252592017726268
149	0xbf40b311890471e7	-0.0005096278783046055
150	0xbf4f7413ea4c3062	-0.0009598824732122253
151	0x3f4f2a783c15253a	0.0009511077006802212
152	0x3f453e787c80db6f	0.0006483162224018966
153	0xbf494d3858dff431	-0.0007721448071148549
154	0xbf3c63f782131ab0	-0.00043320458105392933
155	0x3f5c08631728062e	0.0017109840088099892
156	0x3f5007fa43d7d48a	0.000978464507509077
157	0xbf5a1d242e6a662e	-0.0015938618977656793
158	0x3f506966a0325950	0.0010016920285003846
159	0xbf516442945f7bb8	-0.0010615015212278433
160	0xbf4d680f5990dbff	-0.0008974146795769354
161	0x3f548650458ab45e	0.0012527259733972266
162	0xbf37fbceb7d48aea	-0.0003659610445813493
163	0xbf56ac3560e1e104	-0.001383831145657822
164	0x3f53632b78751a9e	0.0011833118931733676
165	0x3f39ad532b9f9873	0.00039180069472733516
166	0x3f4c31e2f37b8dd5	0.0008604391250312491
167	0xbf5278ba460b81fc	-0.0011274165228131175
168	0x3f3d4e4156b0c0cd	0.0004471692579413156
169	0x3f4c441c5928f416	0.0008626116198865465
170	0x3f4c721076233cd4	0.0008680897119805139
171	0x3f403d6da53f1ff2	0.0004956040743246944
172	0x3f43b36a601b2080	0.0006012219821167758
173	0x3f49a7ffea9112b1	0.0007829665747825701
174	0xbf538ebe0af02c3c	-0.0011937003980644475
175	0x3f4151e19787d08d	0.0005285598300006786
176	0x3f52fa232b599851	0.0011582702112718122
177	0x3f4762a837476172	0.0007136651388988515
178	0x3f2e891f5eb9c5ab	0.0002329684060558395
179	0x3f4e769e029816eb	0.0009296676191190267
180	0x3f386c7a6976c31b	0.0003726767403931395
181	0x3f524be2d85b867a	0.0011167254719385553
182	0x3f4efe53f3f50478	0.0009458455969381238
183	0x3f563e2643a8838e	0.0013575910258014387
184	0x3f35913f464cf8f7	0.0003290919760735723
185	0xbf4f97d78ee2a02f	-0.000964145901680707
186	0xbf4844171326cdf2	-0.0007405388517355822
187	0x3f4efc5109a556d8	0.0009456058208267793
188	0xbf57bdb22302a659	-0.001449035607985391
189	0x3f4355833d9b5782	0.0005900278876775774
190	0xbf5910917b12cea4	-0.0015298290930276038
191	0xbf514981efef23a5	-0.0010551232260118473
192	0xbf51fc25ec87027c	-0.0010977144576004563
193	0x3f4403c403845f98	0.0006108004663785025
194	0x3f495915b5a8edc4	0.0007735591892194462
195	0x3f51d897c143dad3	0.0010892374021388887
196	0xbf4c6ebd48529d18	-0.0008676933508881294
197	0x3f50743b2df826d6	0.0010042741704431777
198	0x3f397c59c88c43df	0.0003888816068391958
199	0x3f4f18232d7e65da	0.0009489223257219085
200	0x3f3e0f09c4cca88f	0.0004586600160104781
201	0x3f4070160346e950	0.0005016429409388321
202	0x3f544ec04abfaec1	0.0012394788600386538
203	0x3f49ae74de423cf8	0.0007837362905024617
204	0x3f47afb634ad7419	0.000722850768720587
205	0xbf5157e8c921962a	-0.001058556871180181
206	0x3f5121d7b35a33c9	0.001045666356193952
207	0x3f47d99494513ed5	0.0007278419003657564
208	0x3f503b05bbf57edb	0.0009906345365706035
209	0x3f53b18bcab6202f	0.0012019982485487293
210	0x3f447e40532f8772	0.0006254018866196211
211	0x3f446063484f8e73	0.000621841886296838
212	0xbf526928e7779f3a	-0.0011237048582816837
213	0xbf4244bc657a9e36	-0.0005575103668506501
214	0xbf504fbc9907b017	-0.0009955732131130596
215	0x3f4c82a941048cb2	0.0008700682101657946
216	0x3f4435d1cf6d033c	0.0006167673553606266
217	0xbf49231bd45b04e1	-0.0007671247373865175
218	0xbf401cea88f96e8f	-0.0004917283240035308
219	0x3f5c54ab1a4dfcc3	0.0017291708875005064
220	0x3f517713ef22bb73	0.0010659880322625131
221	0xbf582c97214de76c	-0.0014754749183496186
222	0x3f50fa261445afb1	0.001036202608783104
223	0xbf536c35a527ae0b	-0.0011854671362198112
224	0xbf4b92c5ad4b33f6	-0.0008414712161425298
225	0x3f54717cc05732c8	0.0012477606081688231
226	0xbf357621d0842fcf	-0.0003274757914517563
227	0xbf52373705de0769	-0.001111797078437305
228	0x3f54bb994c542e4e	0.00126543016932858
229	0x3f3af1b8219c7b9e	0.0004111361064235655
230	0x3f4b1805179cd931	0.0008268380035818865
231	0xbf5427da83a7d51c	-0.0012302049568664935
232	0x3f3a8045d35f013b	0.00040437416771156907
233	0x3f4d3eeae8edf51a	0.0008925101300147093
234	0x3f4d81171c36617f	0.0009003985255047613
235	0x3f402ccfe696a6f6	0.0004936232700647181
236	0x3f4659cc7b7c6760	0.0006820915650422692
237	0x3f4db9398ee7ce0d	0.0009070902868288392
238	0xbf528a30280eee7a	-0.0011315794256309395
239	0x3f40de523f754c80	0.0005147840119356234
240	0x3f50d20b017499f8	0.0010266406514546338
241	0x3f4793c937b3efa5	0.0007195217616806539
242	0x3f2b5b29fad656c0	0.0002087105507768052
243	0x3f4b9d06a1f645bb	0.000842693556409361
244	0x3f379bda1bd9d476	0.0003602416507882464
245	0x3f529442293ca2e4	0.0011339803795157805
246	0x3f4f46cc2738881b	0.0009544846383884338
247	0x3f54e2aef21bd254	0.0012747486547911762
248	0x3f38280f7396f2f6	0.00036859872087883995
249	0xbf4d7443e0b1f2d0	-0.0008988696512371667
250	0xbf495b48d23320b2	-0.0007738214084378663
251	0x3f4eb96943e1aa8e	0.0009376300802278069
252	0xbf5441e74bfb03f0	-0.0012364157445718914
253	0x3f44e22e990532a1	0.0006373145607000038
254	0xbf5aa93a92715d1a	-0.0016272613518333924
255	0xbf5374f812db505b	-0.0011875555605245422

ball.isp_c f8 []
0	0x3fe15288806261cb	0.541324854612918

encoder.0.weight f8 [64, 63]
0	0x3fb08b32e0ad6c63	0.0646240042237181
1	0x3f903888c8957291	0.01584066128030998
2	0x3f9c7db2ace0e781	0.027823249627750627
3	0x3f8536e7925df412	0.010358628420130276
4	0x3fc5f2e832cc4e5d	0.1714754341161208
5	0x3fbc8bcf78992996	0.11150833792013368
6	0xbf99481dc100b5d8	-0.024689164071039688
7	0x3fb868547085bb0d	0.09534194705132056
8	0xbf81b59d75b0c852	-0.008647184518938787
9	0xbfd574254a59e569	-0.3352139688573375
10	0xbf5e155fc853e939	-0.00183615068209393
11	0xbfa60496a45ff50b	-0.043003757062232216
12	0x3f94f46381e90212	0.020463518909538854
13	0xbfb111561e5ee88b	-0.06667078248475115
14	0xbff02b7d58f36b46	-1.0106175875323102
15	0x3fb290763e83b1be	0.07251681352835868
16	0x3f81e5d3656182c6	0.008739139109992588
17	0x3fba18b5bc3e3339	0.101939543206936
18	0x3f92e318fc57fce0	0.018444433595502185
19	0xbff66c5119aad0e3	-1.4014445307375858
20	0xbfa5a9d3ef17f0d2	-0.04231130879995394
21	0xbf9e5bf64f99f8f3	-0.029647682770240057
22	0xbfaefdbb7e25f820	-0.06052957453628971
23	0xbfcce04368965c1d	-0.2255939732246767
24	0xbff5ea818a0ca9ae	-1.3697524445111458
25	0x3fad89b6280b03bc	0.05769128073507754
26	0x3f974b86cfc05c74	0.02274904864324552
27	0x3fb548f2db341de3	0.08314435817384651
28	0x3f5c78abade53240	0.0017377544932798555
29	0x3fc67a2d8c2614c5	0.17560357421112918
30	0xbfc444479ff40868	-0.15833373365609593
31	0xbfbd5aa848f475ed	-0.11466457158208927
32	0x3f99102c4dd930b4	0.024475757838715764
33	0xbfb59c50fd010e25	-0.08441644837244462
34	0xbff53499671d63e2	-1.3253416088029941
35	0xbf870a6d02cef94e	-0.011250354431351053
36	0x3f8b1d836221182e	0.013239885742347548
37	0x3f3b806b9bc2f43c	0.0004196417537619156
38	0xbf8e4a81592294c9	-0.014790545017897465
39	0x3f8470eebe77350e	0.00998102682833715
40	0xbf96bd7624fb642d	-0.02220711327285956
41	0xbf87c7926aa0a6e5	-0.011611122015966877
42	0xbf855053972bfeba	-0.010407116938494599
43	0xbf97c28fcf096da4	-0.023203131686711523
44	0x3f96591f896eb627	0.021824352992260068
45	0xbf8f43fd79a4aa73	-0.01526639964557328
46	0x3f946613bbb3fed4	0.019920643168915245
47	0xbf8fc0b1fb442cae	-0.015504255753077647
48	0xbfb19bc5ab426d37	-0.06878314429416298
49	0xbfb38f7ef8ccdff7	-0.07640832494951143
50	0x3fa2230f517311f4	0.03542373532539847
51	0xbfa1e7ee8be29b16	-0.034972624374225145
52	0xbfa4ae248047efc3	-0.040391102465917615
53	0xbfb187e4f98f24c0	-0.06847983448746486
54	0xbf7eaea5b80a57a4	-0.00749077543209423
55	0x3f9d1dc43fb01ada	0.028433863055421373
56	0xbfaa79a82b079b22	-0.051709418537760024
57	0x3fb79c0d3a111645	0.09222490947384994
58	0x3f47a78dcd492091	0.0007218782798839187
59	0x3fb6fc89d06fdd06	0.08979092921059725
60	0x3fb175e6c521328f	0.06820528328644059
61	0xbfa3452f0f1cffb9	-0.03763720569122548
62	0xbf996fc145f4ed56	-0.024840373892613364
63	0xbfa3b2f874bbf947	-0.03847481179217254
64	0x3f6bddf031bb1e7e	0.003401726846138874
65	0x3fb7d43f73c0142a	0.09308239532408949
66	0xbf520c20bbd043f5	-0.0011015243210332735
67	0xbfc9c306b8999d22	-0.20126422895121104
68	0xbfaf80a64bc88b63	-0.061528393507862565
69	0x3f855d61adca170f	0.010432017437107114
70	0x3fb8a44c13ae77dd	0.09625697594171308
71	0xbf790f519c62c960	-0.006118124763974414
72	0x3fe453504f53a74e	0.6351701306677826
73	0xbfb13addf45a0fa2	-0.06730448928470747
74	0xbf91b2c43550f932	-0.017283502344292496
75	0x3f6a149f44460792	0.003183661525498268
76	0xbf8df2022ca66bdd	-0.014621750819790275
77	0x3fb935e088e8b87f	0.09847834913736796
78	0xbfa22e552585a821	-0.035509739713987416
79	0x3f88c1d82d52b229	0.012088478930615558
80	0xbf742b92eff1488e	-0.004924367879612158
81	0x3f7cdaaa549e4667	0.007044473031685073
82	0x3ff80540c0661eb0	1.501282455023027
83	0x3f85c849cad2b5f8	0.010635925771874874
84	0x3f8fcbef33621397	0.015525692706668965
85	0xbfbdf6290f268809	-0.11703735942731454
86	0x3fc99f50077ad30a	0.2001743351480843
87	0x3fec056c007391d6	0.875661850816466
88	0xbfaa2c616981d012	-0.051119846467287414
89	0xbf8d96036e28fa6f	-0.014446284102743704
90	0xbf98c0360a0d4000	-0.024170727122793778
91	0x3f931a114a7cfe93	0.018654127284433896
92	0xbfc077a3174b56d3	-0.1286510337583225
93	0x3fa8061530ad1932	0.04692140788260914
94	0x3fc310565613834d	0.14893607333126582
95	0xbfb41042e5108619	-0.0783731278648009
96	0xbfb28dd0185274e4	-0.07247639268685507
97	0x3f95fb2744a2f7d1	0.021465886654134018
98	0x3f74e5b0cbeb6390	0.005101862536968663
99	0x3f9d74ae6b8db7c9	0.02876541644530287
100	0x3f897f88f7a47b48	0.012450285012673881
101	0x3f621b878cc20052	0.0022103927095145437
102	0xbf5c3e5858b63f24	-0.0017238486060228786
103	0xbfaf189b077d3679	-0.06073460070056753
104	0x3fb1ba115cc342c8	0.06924541964259412
105	0xbfa0223b54986bd0	-0.03151116759928352
106	0xbf892138594d02f4	-0.012270393586392349
107	0x3f962ef4f729e56a	0.021663501344368376
108	0x3f8031f93e207c0a	0.007907817085706998
109	0x3f88d35aa0f67447	0.012121875798408633
110	0x3fac32116bdebb36	0.05506948892376899
111	0x3fb434b371d168e3	0.07892915276298455
112	0x3fb1a0ccd26e4ba9	0.06885986459228256
113	0x3f8a4b7aa0770ad6	0.012839277288440181
114	0x3fa33ed8762583cd	0.037588848516640995
115	0xbf6e316b87852dc6	-0.003685674684822368
116	0x3f9cdcb121943890	0.028185622858523163
117	0x3fc093f32f0178d2	0.1295150737304938
118	0x3fc92acfacf391b6	0.1966189951409782
119	0x3fb29f83a9c167f3	0.07274649519368363
120	0x3fb546e073927371	0.08311274358352506
121	0x3f9adf55e4e5dc30	0.026242582412546678
122	0xbfb672040b0714a9	-0.08767724293928104
123	0xbfb61065fb2077b8	-0.08618771916414303
124	0xbfbba05a16e061c9	-0.10791552599437816
125	0xbfbafd3d22b28582	-0.10542661759475006
126	0xbfb7b657ad02ca28	-0.092626075495709
127	0xbfa2bbf00149b60d	-0.03659009948465206
128	0x3fc18afe9edeeb8a	0.13705427892076855
129	0x3f72c569132eea0b	0.004582796524966524
130	0xbfb021b1e2f0335f	-0.06301414289937445
131	0xbfbf4a9b0dbce5e8	-0.12223214230916535
132	0xbf7cc808f951fe0f	-0.007026705793691259
133	0x3fc09c92940ac3de	0.12977821568122655
134	0x3f7772d9a0288acc	0.005724763965676071
135	0x3fe498294d98db81	0.643574382359347
136	0xbfacc772a5ea6609	-0.05620916629159118
137	0x3fb0e95e2409d8f5	0.0660609090790308
138	0xbfa3e892f085e895	-0.03888377367089039
139	0xbfaae676a24569df	-0.052539546307077016
140	0x3fd45007f89133ee	0.3173847129262971
141	0x3fb1adccad3bedff	0.06905822018955375
142	0xbf9c2b90ad5d12b5	-0.027509937840721494
143	0x3fb6da364d05dfd2	0.08926715259974508
144	0x3f8e1fca93dc4cc6	0.014709074628206042
145	0x3feb6bf1f8793c0b	0.8569269040107214
146	0x3fa4b729c2d48246	0.04045992377564693
147	0x3fb05995d2bf688e	0.06386696238715414
148	0x3fb6a2f45559eb34	0.08842398723383554
149	0x3fd01de9a22e48ab	0.25182572210281745
150	0x3ff1b40dd52c99be	1.1064585044019704
151	0x3f93842fb25b778e	0.019058938275399444
152	0xbf97485544148b9d	-0.022736866264618894
153	0xbfc5d2c3c895e3df	-0.1704945306226184
154	0xbf87f70b254006fd	-0.011701666902812042
155	0xbfc40ab7eafbaf07	-0.156577100503789
156	0x3fc48ef949c9ac10	0.16061321356696157
157	0xbfa43a3381b3b7d2	-0.039506539900557094
158	0x3f9600243b8c2913	0.021484914907923768
159	0x3fb927ece70f724e	0.09826546326753169
160	0x3fd0ebb2120af64c	0.2643857170295163
161	0x3fa90467763706c2	0.04886172597936202
162	0x3fa5392da783ffeb	0.041451861094173946
163	0x3f9087746ed22069	0.01614171911617782
164	0xbf92bd331555056e	-0.018299863984116475
165	0x3f9b7c71c9223f9d	0.026841905499679453
166	0xbfb9bef1bfd7c7e8	-0.10056982930817038
167	0x3f9a88c3e01aef0d	0.02591234259919788
168	0x3f4ab198ef51801d	0.000814628291333722
169	0x3f94b3c144a6c81c	0.020216960730699993
170	0x3f94e1179cb87ced	0.0203899087338159
171	0xbf9f7fd70733e100	-0.030761108221640576
172	0xbfa240eced013a02	-0.03565159218907256
173	0x3fb87c6466c51cc8	0.0956480742362259
174	0x3fa7442540254743	0.04544178398158618
175	0xbfb7c4925ac7b814	-0.09284319607078856
176	0xbf932be5e398e176	-0.01872214509623534
177	0xbfa4960a7766d903	-0.040207221103104394
178	0xbfb7971aff7b5cbf	-0.09214943635321314
179	0xbfa17125c8f5450b	-0.034066372662559706
180	0x3fb69da24d8e6d49	0.08834280389276218
181	0x3fce281b889d2c57	0.23559898539164933
182	0x3fc0c6cbbd3f77f4	0.13106676807996076
183	0xbfa370702c3d878c	-0.03796721019786195
184	0x3fb2c773fde5f262	0.07335591267287492
185	0xbf99f8ef7c93fd39	-0.02536367605079912
186	0xbfac11bfd44e018a	-0.054822916666128554
187	0xbfc3555860347122	-0.15104202935698036
188	0xbfab5ffc2941bdad	-0.053466682468634154
189	0xbfa9a69f8d6ca663	-0.0500993595254158
190	0xbfa5414ea458a2f7	-0.04151387935809752
191	0x3fc20f265081b5e5	0.14108733111372299
192	0x3f0e01873084fcf0	5.7231844098110346e-05
193	0xbfb38eceff9c7a44	-0.07639783611782841
194	0xbfc470c1d541e0ed	-0.15969107544857
195	0x3f9592ce11e595a9	0.021067828981718915
196	0x3f909e765f009c61	0.016229486034856303
197	0x3f88b74ee124cfae	0.012068382497638055
198	0x3ffc8df59a232155	1.7846580525384372
199	0x3f81b6a5c6bc10e9	0.008649153830909433
200	0xbf85146d490fa95d	-0.010292867462301453
201	0x3f90d7587cd3c4d5	0.016446478480195054
202	0x3fb853563861fa36	0.09502161861926414
203	0x3fde07310186df1e	0.4691889300261084
204	0x3fb889cf24165782	0.09585280066525395
205	0xbf97595f62eff945	-0.022801866925868514
206	0xbf8c07680578e55b	-0.013686001460075195
207	0x3f664a7acba39e51	0.0027210615490849484
208	0x3ffb97b45682ad95	1.7245372180285348
209	0x3f7f06a7131e438a	0.007574703822584969
210	0x3fa7b3dbf5c28c36	0.046294091939920554
211	0x3fbdc34668cc4ba0	0.11626091059251431
212	0x3f857904fb1e50f0	0.010484732545400693
213	0x3fe43454a02fb79f	0.6313880089417018
214	0xbfbed89eed11ee02	-0.12049287116854404
215	0xbf835ea16a7b6007	-0.009457837163992634
216	0xbfbe2fac2deeba87	-0.11791492577934025
217	0xbf8e0af5edd6a107	-0.014669343300582683
218	0xbfc190c20a2a4017	-0.13723016258563867
219	0x3faf9f19aefaf6f5	0.06176071415891996
220	0xbfadb33e9f7b6826	-0.05800815293123689
221	0xbfb3e7ecf118a8e7	-0.07775765310421755
222	0x3f992a50c798d69f	0.0245754834961277
223	0x3fe64ee04457e068	0.697128423197694
224	0xbf2f8c86e5794b4c	-0.00024069925960875716
225	0x3fa0c274c9d93e5e	0.03273358310673012
226	0x3f9118f07e4aa2f2	0.016696698864197175
227	0x3f90a60b5fee298a	0.016258409242746498
228	0x3fa6a13e7e2e6bc0	0.04419894495295962
229	0xbfb889736893eea9	-0.09584733298464222
230	0xbfa617b4374de070	-0.04314959693050546
231	0xbf7cd823da095e10	-0.007042064710354193
232	0xbf4b5adda933cc56	-0.0008348066643563228
233	0xbf6cf311044cd05f	-0.0035338718756979105
234	0xbf929f45e351853a	-0.018185703277031375
235	0x3f42449221b9bec7	0.0005574906858338496
236	0xbf9e5f43d277b757	-0.02966028186886346
237	0xbfa87d595208b04c	-0.04783133627310629
238	0xbfc14a384157fef5	-0.13507750692951218
239	0xbf6e8445e9f685a2	-0.0037251821047028103
240	0xbfabf0640c0555ee	-0.05456841131914901
241	0xbf964ca7f7174635	-0.02177679486869107
242	0xbfb5a2b498b7b31f	-0.0845139382215163
243	0x3fa5cda15ba8cba6	0.04258445972336426
244	0x3fbc3ff88ebf998a	0.11035111889905216
245	0x3fb5d938dd97a401	0.08534579668015853
246	0xbfa66e43df5f5da9	-0.043810006158021615
247	0x3f82535634f75ea2	0.008948014727976631
248	0x3fa4b9ff95c2aee4	0.04048155501490472
249	0x3fc19050bc44e45d	0.13721665566279997
250	0x3f9c9f145ca97da3	0.027950590282100795
251	0x3fbba7c456b51530	0.10802867047194264
252	0x3f863ebc0ef4850e	0.0108618442596389
253	0x3f8c7aaba8225a49	0.013905850475834163
254	0x3f86e0ce8ea53ea8	0.011170972564883044
255	0x3f870b4b177bccfe	0.011252009061968323

encoder.0.bias f8 [64]
0	0x3f9f0a67f02897cb	0.030313133271327602
1	0xbfaf5431b0a8786f	-0.06118922502013013
2	0xbfbbdaca9f3f8234	-0.10880724323170271
3	0xbfad94bdd60333e4	-0.057775432943891564
4	0x3fb4846b4aa7595a	0.08014555523491165
5	0xbfbbe0a1e42e1960	-0.1088963682251225
6	0xbfb634d508845bd4	-0.08674365480361185
7	0xbf93c5260c67dc80	-0.019306749827560754
8	0xbfb2d0f652f713c2	-0.07350101018444291
9	0xbfb4edcf550a36f7	-0.08175369096917594
10	0xbfb3b843873d3d11	-0.07703039218653297
11	0xbfb757ac798a645e	-0.0911815449457136
12	0xbfb572c054127791	-0.08378221561949163
13	0x3f9e41dfb2a91532	0.029548163680620472
14	0xbfb2ac02664a4454	-0.07293715474431056
15	0xbfb398209eb73190	-0.07654003023998812
16	0xbfb613b6bf3e5a20	-0.08623830956489842
17	0xbfa3f0385d085741	-0.038942109447971614
18	0xbfb281f756f69297	-0.07229562638401386
19	0xbfb7591ca2d1b4d0	-0.09120348906590725
20	0x3fb244f25a217f46	0.07136454296550906
21	0x3fa9bcc4d760e38f	0.05026831750041715
22	0x3fb621c2528e3c9f	0.08645262256162532
23	0xbfb66bb3f1724290	-0.08758091587720629
24	0xbfb3faaa0eb1b824	-0.07804358347650059
25	0x3fb3b026ed1f2c98	0.07690661706071678
26	0x3fa2c24d1eb25142	0.03663865089143538
27	0xbfa5d25b14748ae3	-0.04262051224420362
28	0xbfb946c32c2c2402	-0.09873599842480021
29	0x3fbb42716df7d23b	0.10648259100691686
30	0xbfaced4b5b1fac12	-0.05649791228628244
31	0x3f94b92e511367f6	0.02023765916678851
32	0x3fab7874c5693a29	0.05365338239481716
33	0xbfb41e75feb47ba5	-0.07858979671844553
34	0x3fb1d1da6c1cd170	0.06960835589854297
35	0x3f8ea583df89a11a	0.014964132556273092
36	0xbf8e0f90320b07b0	-0.014678122069543637
37	0xbfb7b9dd5510b345	-0.09267981840885138
38	0xbfbce42e1ccf1806	-0.11285675242751844
39	0x3faf19386d072805	0.06073929148585936
40	0xbf82d9980d533e67	-0.00920409002938456
41	0xbfb84ba242461e52	-0.09490408056273594
42	0xbfad3797231f3c06	-0.05706474593863935
43	0xbfb241f2a5cd206e	-0.07131878421671597
44	0xbfb9287f63471ea3	-0.09827419446730316
45	0xbfb1376b6ed9b9e2	-0.06725188690482001
46	0x3fa8e9596a20b576	0.04865531368737212
47	0xbfaea9f266706322	-0.0598903417632697
48	0xbfb4ad93e2960777	-0.08077358514677067
49	0xbfc03368c990d1b8	-0.12656888811183165
50	0xbfb45118f8eeb0c1	-0.07936245038462443
51	0xbfb1caf45b539205	-0.0695030901875456
52	0xbfb06dc0586dc508	-0.06417467268854093
53	0xbfa64235d5bacd59	-0.043473894443560375
54	0xbfb6db2636ad4c0c	-0.08928145251165648
55	0xbfb2f36aad728171	-0.07402674421837731
56	0xbfb873e00fa0bbc1	-0.09551811582126303
57	0x3fc1330c170012c1	0.13437033770619247
58	0x3f885a0452291904	0.01189044357046188
59	0xbfb82009ff22510a	-0.09423887709482784
60	0x3fb843fa72925953	0.0947872667041783
61	0xbfbfef449014f0db	-0.1247446872484405
62	0x3fb5920694f14002	0.08425942550934454
63	0x3fb0aa4255b5cb5d	0.06509794800312592

encoder.0.ball.isp_c f8 []
0	0x3fe15288806261cb	0.541324854612918
